sim/assets/mujoco/openduckmini/BEST_WALK_ONNX.onnx (onnx, 884177 bytes, 10 tensors)

mlp_13_1/sub/ReadVariableOp:0 f4 [101]
00000000: 1483 b23b 4858 c2bb ddb8 8fbb e607 f3bd
00000010: 6374 35bc e3cc 1741 b3d7 59ba ae47 71b9
00000020: a19c 84bb 5bf0 b03e aa6f 04b9 5a5b 1737
00000030: 0803 9aba 1654 33bb d42c 75bc 8bf2 d9bd
00000040: e4b8 bf3c 2e86 ff3d 65ac 0c3e 029d 66bd
00000050: 4c9b 2c3c ae6c 2ebd 9e0d a43c 0125 85bc
00000060: a7ff ea3d b730 503d a973 ee3d ae76 ac37
00000070: b0a5 41b8 09d8 29ba 887c e639 9178 773a
00000080: 6e3b d639 e0ec a9b8 1e62 a438 9aa9 f4b8
00000090: 0639 ae38 5ea0 c3b8 61be 343a ab39 de39
000000a0: a9a6 723a 9367 c5bc 1f6c 08bd ba92 eabe
000000b0: 406f 60bd c009 ef3e 797b 0d3f 0c79 56be
000000c0: 4a1d 293d 5669 28be 2128 bf3d 680d bdbd
000000d0: 8465 fd3e 4226 6d3d 6ac1 dd3e 6f6e c5bc
000000e0: 2db3 08bd 096b eabe 026e 60bd cbf0 ee3e
000000f0: 886a 0d3f ec5a 56be 9aed 283d 425d 28be
00000100: b111 bf3d 252a bdbd 4037 fd3e 5342 6c3d
00000110: 35b4 dd3e 4c76 c5bc 3ae9 08bd c644 eabe
00000120: 0461 60bd d4d7 ee3e 875a 0d3f 013f 56be
00000130: 58b6 283d 9d55 28be e9fc be3d d748 bdbd
00000140: 4108 fd3e c15a 6b3d 72a8 dd3e f5fd 86bb
00000150: ab69 373d 5fb5 3ebf ae38 ad3f 32a3 2abf
00000160: 1ffb 0d3e d485 58bd d74c 2d3c 4bc1 2abd
00000170: 4f28 a73c 2f0d b5bd 6f4f 423f b238 b23f
00000180: 93db 2fbf 6d5f 4c3f 9a9f 4d3f 1caf 01b9
00000190: 6c87 deb7
0.0054477546 -0.005930934 -0.004386051 -0.11866741 -0.011075112 9.487521 -0.0008310035 -0.00023010254
-0.004046992 0.34558377 -0.00012630099 9.021571e-06 -0.0011750171 -0.0027363352 -0.014964301 -0.106419645
0.023403592 0.124767646 0.13737638 -0.056302078 0.010535073 -0.042584114 0.020026024 -0.016252996
0.11474543 0.050827708 0.11643154 2.0559262e-05 -4.6169094e-05 -0.000647903 0.00043961802 0.0009440268
0.0004086154 -8.1026694e-05 7.838405e-05 -0.000116664174 8.307588e-05 -9.328195e-05 0.0006894824 0.00042386106
0.00092564017 -0.02409724 -0.033306237 -0.45815068 -0.054793596 0.46687126 0.5526653 -0.20944613
0.041287698 -0.16446432 0.09333826 -0.09231073 0.49491513 0.057897814 0.43311626 -0.02410051
-0.033374 -0.45784786 -0.05479241 0.46668085 0.5524068 -0.20933121 0.04124222 -0.16441825
0.09329546 -0.09236554 0.49456215 0.05768044 0.4330155 -0.02410426 -0.033425547 -0.45755595
-0.05478002 0.4664904 0.5521626 -0.20922472 0.04118952 -0.16438909 0.093255825 -0.09242409
0.4942036 0.057459597 0.43292576 -0.0041196295 0.044778507 -0.744955 1.3532922 -0.66655266
0.13865326 -0.052862003 0.010577402 -0.041688245 0.020404963 -0.08840405 0.75902456 1.3923552
-0.6869442 0.7983311 0.8032166 -0.00012367632 -2.6527523e-05

mlp_13_1/MLP_0_1/hidden_3_1/Cast/ReadVariableOp:0 f4 [128, 28]
00000000: 061c 02bc 3a64 c23c 3b9d 513c 0b61 bebc
00000010: 6d45 66bd c147 02bd d4bf 123b 6167 803d
00000020: 7a66 443d 5ed8 413b c518 453d 3fc7 ca3d
00000030: b423 09be e58f 25ba aacc babc 7fd7 343d
00000040: 3c58 643b 496d 273d 35c3 2dbd 850d 233d
00000050: 64bc 14bd f6c6 353d be1b 113b 7c26 413d
00000060: 9f4c 133d 6664 793d 33bc ba3d 68ee fa3d
00000070: c371 a53c a37d 143e 4ddb 6fbc fd7c e73c
00000080: b97a 9bbd ba78 32bd 1e4b 163c f984 e6bc
00000090: dde6 63bd ebba 5f3c 3a82 8d3a 79a5 d1bc
000000a0: bff5 0c3b 0492 4c3d b2b0 343d fdb9 11bc
000000b0: 7272 56bd 142b 9abd 3611 f3bc 6c41 0abd
000000c0: 45d5 73bd d3ea babd 8e57 083d 6c69 2ebd
000000d0: 8330 b9ba f8c6 15bd c5be 7cbd cb5a 97bc
000000e0: fd1b 88bb ae05 53bc 6f5a a03d 8087 0dbd
000000f0: 6748 1e3e 1ce7 813b 36bf 1e3d 46af a83c
00000100: afb5 63bd 0c02 d53c e632 43bb d52e 593b
00000110: 4740 3c3c 96a6 01bd d5e7 23bc 3310 e33b
00000120: 7445 eabc 8947 40bc f9f2 f53d 3069 8d3c
00000130: 714d d4bc 9d2e 36bd 7571 2bbd 98f0 cb3c
00000140: dd33 48bd 50a4 fabc 25ed 39bd 6c4f 92bd
00000150: a947 983d 02ab e53c 60a3 0a3c 6e1c 2c3d
00000160: 4f60 b7bd 2cbb 0dbd e435 bebd a68b 193d
00000170: cde0 853d db6e 39bd e9b7 b8bd ca9c 84bd
00000180: 254d 23bc df13 e23d 8935 123d 159f 833c
00000190: 1e87 cfbc 603a 08bd f051 353c 3ad3 46bc
000001a0: ba5b 583d da58 2d3c 2289 543d eeba 06bc
000001b0: f099 063e 357d 223d c5bb 773b 3c83 e73d
000001c0: 2fda 32bd 0636 db3d f168 16bd 44ae 073e
000001d0: 2508 cdbb 424b 80bd d717 a4bd e0db a8bd
000001e0: 61c7 3ebd 193c 0c3c ddeb 30bd 8951 5cbd
000001f0: 05db c73c 587f 413b 6295 353e 8c43 043e
00000200: ffef 333e 033c 7e3e c5c5 493e a01e 483e
00000210: a1d6 5a3e 2d6b cd3d 96e9 383e 5770 f13d
00000220: 7948 4b3d 4505 bc3d 56a5 173e 74eb b83d
00000230: 8efe 47bc 1d97 33bc 86da a43c bac5 db3c
00000240: 0be6 233c 97a4 f4bc 3658 ea3b 730e 9d3d
00000250: 47e4 38bd 241c 83bb c04c 923d 2abd 633d
00000260: 6b3a b33d 55a3 adbd d050 fbbb 142b 4fbd
00000270: e359 02be 3979 833d af0a 16bc 55a5 ccbc
00000280: 10da 80bd 2d49 fdbb 1453 d53c a042 043d
00000290: 0604 b63b 59af 0f3d 37e7 473d 06b9 0a3d
000002a0: 55a8 87bd e3fd 9fbb 42a4 96bd ea6b a83d
000002b0: bad4 e23d 53cc c4bc 31a8 2b3d 9a56 c23d
000002c0: 9b99 b9bc 9434 f4bb b0ab 67bd f105 57bd
000002d0: c80f 8fbd bb8a 973b a4a8 823c 16c2 8e3c
000002e0: 247d d23c ac3c 2e3d c589 d43d e6f6 053c
000002f0: 4b0e 85bd d5a7 bbbb 3740 963c bc88 d7bc
00000300: 2500 443d e937 0d3d 3d0e 77bb 1d27 04bd
00000310: 035c dcbc 0f63 df3d dfb8 96bb b40f a2bd
00000320: ac83 d1bd 14c5 f9bd 00dc 10bd 329f 89bd
00000330: 2ebc b3bc 126d 173d f91f bf3d ce2f 3ebe
00000340: 131c 033d b787 9e3c 0caf 23bc 6c93 8b3c
00000350: 08a3 b5bd 23a9 283d 4679 babc 574b ed3d
00000360: 944c efbb 64e9 dd3c a0b2 04bd 3c62 48bd
00000370: f845 1abd e392 e53c 85fc f0bb f111 a4bc
00000380: b714 1abd d3fd f5bc a68f 973d 43fc edbd
00000390: 4006 343d 7f96 623d 120b 8fbd 80e2 b63c
000003a0: 2d08 b3bc c258 3a3d 7c0d 923c c2fc e1bc
000003b0: 5b4b ffbd bf17 883d f36f 82bd a3d8 6ebd
000003c0: 8f87 31bd c29d 693d 96b7 afbc 7a36 a3bc
000003d0: 5012 533d 219a 16bc be48 c03c c412 9b3c
000003e0: 80a2 38bc fa8f 5bbd c4f7 4b3c a936 d43c
000003f0: ffe2 8dbd cc22 12bd 9853 123e af7c 67bd
-0.007941252 0.023729432 0.012793834 -0.023239633 -0.056218553 -0.03180671 0.002239217 0.06269718
0.04794929 0.0029578428 0.048119325 0.099012844 -0.13392526 -0.00063156924 -0.02280267 0.044150826
0.003484263 0.040875707 -0.042422492 0.039807815 -0.036312476 0.044379197 0.002214178 0.047155842
0.035961743 0.060886763 0.091179274 0.12252504 0.020195847 0.14501052 -0.014639688 0.028257841
-0.07591767 -0.043572165 0.009173183 -0.028139578 -0.05564009 0.013655405 0.0010796257 -0.025591599
0.002150878 0.04994394 0.044113822 -0.008894441 -0.052355237 -0.07527748 -0.029671293 -0.033753797
-0.05952956 -0.091268204 0.033286624 -0.042581007 -0.0014128838 -0.036566705 -0.06170537 -0.01847591
-0.004153727 -0.012879772 0.07829749 -0.03455305 0.15457307 0.003964318 0.03875657 0.02059139
-0.05559319 0.026001953 -0.0029784977 0.0033139486 0.011489934 -0.03165301 -0.0100040035 0.0069294213
-0.028597571 -0.011735805 0.12009234 0.017262071 -0.025915833 -0.044478048 -0.041856248 0.024894997
-0.048877586 -0.030595928 -0.045392174 -0.07144055 0.07435543 0.028035644 0.008461803 0.0420193
-0.08953916 -0.03460233 -0.092876226 0.037486695 0.06537018 -0.045271736 -0.09019453 -0.06475218
-0.009967123 0.11038946 0.035695586 0.016067067 -0.025332984 -0.033258796 0.011066899 -0.012135321
0.052821852 0.010580266 0.051888593 -0.008223278 0.1314466 0.039670188 0.0037801128 0.11304328
-0.043665107 0.107036635 -0.036721174 0.13250071 -0.0062570744 -0.06264354 -0.080123596 -0.08245063
-0.04657686 0.00855925 -0.043193687 -0.053788695 0.024396429 0.0029525366 0.17732766 0.12916392
0.1757202 0.2482758 0.1970435 0.19542933 0.21370937 0.10030208 0.18057856 0.11789005
0.049629662 0.091806926 0.14809164 0.09029284 -0.012206687 -0.010961321 0.020123731 0.026827682
0.010003577 -0.029863639 0.007151629 0.076687716 -0.045139577 -0.0040011574 0.07143545 0.055600323
0.08751377 -0.08478419 -0.0076695457 -0.050578192 -0.12729602 0.06419606 -0.009157821 -0.02498118
-0.06291592 -0.0077296705 0.026040591 0.0322901 0.005554679 0.035079334 0.048804488 0.03386786
-0.06623904 -0.0048825606 -0.073555484 0.08223708 0.110757306 -0.02402321 0.041908447 0.09489174
-0.022656253 -0.007452557 -0.05656022 -0.0524959 -0.06985432 0.0046246923 0.015949555 0.017426532
0.025694437 0.04253833 0.1037784 0.008176541 -0.06496867 -0.0057267942 0.018341167 -0.026310317
0.0478517 0.03447715 -0.0037697696 -0.032263864 -0.026899343 0.10907566 -0.004599675 -0.079131514
-0.102301925 -0.12195793 -0.03536606 -0.06719817 -0.021940317 0.036969252 0.0933227 -0.18572924
0.032009196 0.019351823 -0.009990465 0.01703807 -0.08868986 0.041176926 -0.022762906 0.115866356
-0.00730283 0.027088828 -0.032396913 -0.04892181 -0.037664384 0.028024143 -0.0073543214 -0.020028086
-0.03761741 -0.03002826 0.07400446 -0.11620381 0.043951273 0.055319306 -0.06984533 0.0223248
-0.021854484 0.045494802 0.017828695 -0.027586345 -0.12465545 0.06645154 -0.06369009 -0.05831207
-0.04334217 0.057035215 -0.021449845 -0.019923437 0.051531136 -0.009192021 0.023472186 0.018929847
-0.011269212 -0.053604104 0.012449209 0.02590497 -0.06928062 -0.035677716 0.14289701 -0.056515392

mlp_13_1/MLP_0_1/hidden_3_1/BiasAdd/ReadVariableOp:0 f4 [28]
00000000: 37d0 293c 9cda a5bb a5f9 58be a26a 0abd
00000010: 69ef 5b3e 33b8 4d3e f336 52bd 9f38 5b3c
00000020: 084b 1e3c f145 03b9 d572 d2bc cf61 443e
00000030: 25f9 543d d570 283e 38a0 8bbe bd3f 95be
00000040: 0417 aebe 6350 95be 8be8 a5be fa29 60be
00000050: 0326 74be c60d 5ebe a31b 43be a692 8dbe
00000060: f566 98be 65e8 a5be c5b8 90be 0d1a bbbe
0.010364584 -0.0050614607 -0.21188982 -0.0337931 0.21478046 0.20089798 -0.051321935 0.013380199
0.0096614435 -0.00012519189 -0.025689522 0.19177936 0.051995415 0.16449292 -0.27270675 -0.2915019
-0.34001935 -0.29162893 -0.3240398 -0.21891013 -0.23842625 -0.21684942 -0.19053511 -0.27650946
-0.2976605 -0.32403865 -0.28265968 -0.36543313

mlp_13_1/MLP_0_1/hidden_2_1/Cast/ReadVariableOp:0 f4 [256, 128]
00000000: 20f7 e23d 4c0a d6bb 85a3 dabc 9851 833e
00000010: 6a0a c53d 7c58 f6bc 7b32 503e 578f 5c3c
00000020: f7e2 eb3c 5a6c 043e ff39 0bbe 4fc3 f73d
00000030: e324 2e3d 3aad b53d 67c7 103e dc7b 533d
00000040: 9737 b83c 468a 5fbd 5d65 7c3d 3547 2cbe
00000050: 0d94 9fbd 0207 873d fcdf 9e3d 59f8 923d
00000060: 25f5 523e e9b6 97bd 13a5 343d 4972 4dbd
00000070: 297d e0bd 8040 d53c 6560 373e d2bc 1bbe
00000080: 6df8 8e3d 5bd0 bb3d 8369 bd3d 423a 163b
00000090: e84f f03d 83b8 173e 6210 38be fce4 073d
000000a0: f74d 10be 142b 12be 11fe 79bd 3204 73bd
000000b0: 34e2 f7bd caf9 a23d 0b23 4a3e 6e82 71bd
000000c0: 92ff 38bd 19f3 d6bd 88d4 4f3c 8f47 983d
000000d0: 0f15 563e 776d ba3c 3947 aa3e dac3 493e
000000e0: 4b74 fb3c b7fb 26be 75fa c33d 3ad6 cf3b
000000f0: 51d1 01bd 9bac 3fbd 3892 213d 75dd 013e
00000100: 11b3 043c b27a 4ebd 6d93 a33d a724 1d3e
00000110: 41a3 c53d 6268 403e 312f 113e 2671 e53d
00000120: ce2e 0ebe 969b 80bd b8df 32bc b2f5 0b3e
00000130: a80e 3ebc d905 79bc cbe1 4fbd c4fb ad3d
00000140: 8af3 8e3e f6fe 4bbe 757b c13d 2a54 4a3d
00000150: f5b7 913d 8775 523e 4d89 c7bc e542 183c
00000160: cdef c5bc 14fb b5bd af00 4e3d d5a8 0d3e
00000170: ce54 11be b795 493e 71a6 b3bc df3a ec3b
00000180: 2a93 82bd c059 c23c fbb9 a9bd 44ba 853d
00000190: 7089 42bc 8c49 42be 4f41 e9bd 0939 febb
000001a0: 2323 3e3e 5af4 65bd 708d 49be 61a2 773e
000001b0: f3e0 febd 80c5 0cbe 6eb5 c23d f172 46bd
000001c0: e147 85bb 1dbc e33d 9c29 913d ae34 f5bb
000001d0: c56c dbbc ed03 1bbe d3b0 b33d d96f 483d
000001e0: be24 e53c 1cd8 2e3c 95b0 2dbe 3163 d8bd
000001f0: e47b 863d 0d4a 473d 6818 dd3c 8aa7 2abd
00000200: 1df0 de3d 3b2f b23d 76e6 e23d cb04 683d
00000210: f974 203e 3db5 803d 0590 1dbe b5f0 b9bc
00000220: 4807 9a3c ec5b 323d 05c5 4c3d 05af 1a3e
00000230: 96b0 b4bc 6e42 68bd 4a6f b83d ae84 613d
00000240: 244e 54be 55fa 593d 9925 9a3d a3b8 ca3d
00000250: 8998 00bb 1c22 14b6 41ed 12bd 7da1 e6bc
00000260: dc6d 9b3d 34c4 213d 7e9f fd3d 034c 44bd
00000270: 9690 453d 4de1 6dbb 536e 5dbc eab5 ec3d
00000280: 737d 943b eb16 debd 5869 3bbe 56d7 e8bc
00000290: 317b 76bd ba39 38bc 2263 94bc ad4c 5bbc
000002a0: 39dd e63b 85c0 183d 8812 27be a16d de3d
000002b0: 6911 a2bc 3f93 9fbd c304 fb3c 5f25 3ebe
000002c0: 4c20 a43d 972d 03bc 69c8 a53d 7e5c 423d
000002d0: ddce 5b3e 1d6e 00be c341 1d3d 8fa5 3a3e
000002e0: 06b9 cbbd 902b bcbb ef8c 6dbc 8707 a4bc
000002f0: e2a8 38be 7b70 043e 4967 f83d 8395 d7bb
00000300: 642c 743c 2a8b a6bd 62e4 f6bd 6396 9abd
00000310: 8269 e93d 855d d33d cf09 453d 93eb 9d3c
00000320: 0a52 ad3d 5aae 9c3b cccc 0cbd b4fb bdbd
00000330: fb70 02be 5529 003e c690 2f3e 0ae9 e13d
00000340: dd81 f2bd ec17 ce3b d3c3 623d 2ed9 2c3d
00000350: 6eba 80be bd41 00be c64f cc3b ea91 213e
00000360: 8e45 03bc 56bb cdbd 8309 053e 8a32 343c
00000370: e9e1 a8bc 3bf1 eebd 6c59 52bc 9b2f 2cbb
00000380: 6041 183d 265f 293d d73e 933c e3b9 813e
00000390: b8fd 30bd 8843 163e 5744 e33c 3074 7c3b
000003a0: 87cd 983d a2bf 2f3d acd3 e13c 62e2 363d
000003b0: 3bf5 5d3e 84b1 4ebe 4a52 2e3d c97c 243e
000003c0: 8747 b43d 24fa cbbd d8df 3bbc 3e3f 173e
000003d0: 26e9 1d3b 1dca 1e3e 70fa c93d 2dd2 043e
000003e0: 8170 3cbd 81d1 34be a7a9 8a3d eb13 ca3c
000003f0: 92ca b73c 1d8f 82be c3c7 313e f345 173d
0.110822916 -0.006531989 -0.0266893 0.2564819 0.09621127 -0.03007149 0.20331757 0.013461909
0.028794749 0.12931958 -0.13596343 0.12097799 0.042515647 0.08870931 0.14138566 0.051631793
0.022487445 -0.054575227 0.061620105 -0.16824038 -0.0779191 0.065931335 0.077575654 0.07176275
0.20601328 -0.07407934 0.04410274 -0.05015782 -0.109613724 0.026031733 0.17907865 -0.15208748
0.06980977 0.091706 0.092486404 0.0022922908 0.11733991 0.1481648 -0.17975 0.03317736
-0.14092241 -0.14274246 -0.061033312 -0.059330173 -0.12103692 0.079578 0.1973993 -0.058962278
-0.045165606 -0.10495586 0.012684949 0.07435524 0.2090647 0.022757275 0.33257464 0.19703618
0.030695101 -0.16306959 0.09569255 0.0063426765 -0.03169376 -0.04679547 0.039446086 0.12682135
0.008099333 -0.05040998 0.079871036 0.15346013 0.09650279 0.18789819 0.14178158 0.11203222
-0.13885042 -0.06279676 -0.0109175965 0.13667944 -0.011600174 -0.015199148 -0.050752442 0.08495286
0.2792018 -0.19921479 0.09447376 0.04939667 0.07115165 0.20552646 -0.024357462 0.009293293
-0.024162197 -0.0888578 0.05029362 0.13833936 -0.14192507 0.19686018 -0.021929951 0.0072091664
-0.063757256 0.023724437 -0.08287426 0.06529668 -0.011873588 -0.18973368 -0.1138941 -0.007758264
0.18568091 -0.056141235 -0.1968286 0.24183036 -0.124452494 -0.13747215 0.09507261 -0.04844946
-0.0040674065 0.11119864 0.070880145 -0.0074830865 -0.026785264 -0.15138216 0.08773961 0.04893479
0.027971622 0.010671642 -0.16961892 -0.10565794 0.06566599 0.048654605 0.026989177 -0.041663684
0.10885642 0.08700415 0.11079113 0.056645196 0.15669622 0.062845685 -0.1538697 -0.022697786
0.0188023 0.043544695 0.04999258 0.15105827 -0.022056859 -0.056703977 0.09005602 0.055058174
-0.20732933 0.05321725 0.075267024 0.09898498 -0.0019622168 -2.2073573e-06 -0.035870794 -0.028153175
0.075893134 0.039493755 0.12383936 -0.047924053 0.04823359 -0.003629762 -0.013515073 0.11558135
0.0045315563 -0.10844215 -0.18301904 -0.028422993 -0.06017608 -0.011244232 -0.018113676 -0.01338498
0.0070454148 0.037292976 -0.16315663 0.10860754 -0.019783692 -0.07791757 0.030641919 -0.18568943
0.08013973 -0.008006475 0.08094866 0.04745149 0.21465631 -0.12542005 0.038392793 0.18227218
-0.099474 -0.0057424977 -0.014498933 -0.02002312 -0.18033174 0.12933533 0.12129075 -0.0065791025
0.014903162 -0.08132012 -0.12055279 -0.07548215 0.11397077 0.10320572 0.048105057 0.01927737
0.08462913 0.0047815265 -0.034374997 -0.09276524 -0.12738411 0.12515767 0.1714507 0.11030777
-0.11841176 0.006289473 0.055362534 0.042199306 -0.25142235 -0.12525077 0.0062350957 0.15778318
-0.008012189 -0.10045497 0.1299191 0.010998378 -0.020615535 -0.11667105 -0.012838703 -0.0026273492
0.03717172 0.041350506 0.0179743 0.25337133 -0.043210715 0.14674199 0.027742548 0.0038521402
0.07461076 0.042907365 0.027566753 0.04464949 0.21675579 -0.20184904 0.042558946 0.16063227
0.08802705 -0.0995982 -0.011466943 0.14770219 0.0024095266 0.15506788 0.0986222 0.129708
-0.04600573 -0.17658044 0.0677064 0.0246677 0.02243546 -0.25499812 0.1736136 0.036931943

mlp_13_1/MLP_0_1/hidden_2_1/BiasAdd/ReadVariableOp:0 f4 [128]
00000000: 4731 1ebe 7b9c a1bd 4d55 0abe 957d c3bd
00000010: 61e1 92be 9909 e3bd e2a5 94bd 88ba 3ebe
00000020: 0bde 51bd 4927 cabe 5f06 25bd 1239 43bd
00000030: 56a9 e2bd f72d 21bd e257 8cbd ce23 07be
00000040: 5edb f9bd 289b d6be c83b 07be c8c1 05be
00000050: fc3c e5be 667f f6bd 4f54 38be 11a4 b0bd
00000060: 82e5 69be 62c3 bdbe 51f8 6cbe 4416 5dbd
00000070: c42d ffbd e67b afbe 5114 97be f21a f1bd
00000080: d41c bdbc fe86 17be 0ade 62be 714f e6bd
00000090: fd2e 76bd 324c aebd 5359 4cbd fd46 66bd
000000a0: 368d cdbd 3186 403c c85c 50be cb5f 92be
000000b0: a748 46bd 54d6 c9bd 62be 8fbd 28a8 b6bd
000000c0: 2acf fdbe a5c2 7abd 5715 debe b039 3abe
000000d0: 4aaf 99be 5b06 66be 5153 93be 2210 a4be
000000e0: dfa4 853d 1b19 45bd 7064 d6be 459b 2fbe
000000f0: e2ce d3bd 6d5e 2cbd 0f33 c8be ffd8 96bd
00000100: 950a 6ebd b975 0d3d 69a2 96be 3c1e 8cbd
00000110: 43b4 8bbd d451 48be 7cb4 d4bd 0012 5dbd
00000120: 0ad1 5cbe c373 dbbd 0877 f5bd 38be 57be
00000130: 997c bebc b55e e2bc 2869 82be 2b26 8abd
00000140: 65b2 4fbd f978 ddbd 7d06 72bd 9253 f3bd
00000150: 2e62 06be a80c 0cbe ad3c 37bc cc49 8fbe
00000160: b8cb 5abe 9999 b0bd 762c 52be bc9c 6abe
00000170: f428 413d b547 3cbd 029c 22bd 8c23 283a
00000180: 6362 a5be c39f d7bd b670 7bbd 8ba9 5bbe
00000190: 52ca 02be b61e 2fbe a9c7 13bf 5ec8 26bd
000001a0: 4c56 92be f021 3abe 2a5b f6bd 1e26 c0bc
000001b0: 604e 30be 2ef7 24bd 06cd bcbe 449d 8ebc
000001c0: 372f e9bc fee6 273d d709 abbd deb1 a0be
000001d0: 9c14 fb36 41df 9cbe 0f24 cebc e317 51be
000001e0: e089 41be ece3 d9bc 22d5 48bd 5240 4dbe
000001f0: 32d2 b2be ad22 f6bd acf3 11bf 172a 61be
-0.15448485 -0.078911744 -0.13509102 -0.09545437 -0.28687575 -0.11085815 -0.07258202 -0.18625844
-0.051237147 -0.39483097 -0.04028928 -0.04766185 -0.110674545 -0.039350476 -0.068527 -0.13197252
-0.12200044 -0.4191525 -0.13206398 -0.13062203 -0.4477309 -0.12036018 -0.18000911 -0.08625043
-0.22841457 -0.37063128 -0.231416 -0.053976312 -0.12459901 -0.34274215 -0.29507688 -0.117727175
-0.023085035 -0.14797589 -0.22155014 -0.11245621 -0.060103405 -0.08510627 -0.049889874 -0.056220043
-0.100366995 0.011750744 -0.20347893 -0.2858871 -0.04840913 -0.09855333 -0.070187345 -0.08918792
-0.49572116 -0.061220784 -0.43375656 -0.18186069 -0.30016547 -0.22463362 -0.28774503 -0.32043558
0.06525587 -0.048119646 -0.41873503 -0.17149074 -0.10342194 -0.04208224 -0.39101455 -0.073656075
-0.05811556 0.034536097 -0.29420784 -0.06841704 -0.068214916 -0.19562465 -0.10385987 -0.053972244
-0.21564117 -0.10715439 -0.11985594 -0.21068656 -0.023252772 -0.02763305 -0.25470853 -0.06745561
-0.05070724 -0.10814089 -0.05908822 -0.11881174 -0.1312339 -0.13676703 -0.0111839 -0.2798599
-0.21366775 -0.086230464 -0.20524773 -0.22911352 0.047158197 -0.045966823 -0.039699562 0.00064139883
-0.32301626 -0.10528519 -0.061386786 -0.21451394 -0.12772492 -0.17101559 -0.5772653 -0.04071843
-0.28581464 -0.18177009 -0.12029107 -0.023455676 -0.17217398 -0.04027479 -0.3687517 -0.017408974
-0.028464897 0.040991776 -0.08351486 -0.31385702 7.482782e-06 -0.3063908 -0.025163678 -0.20419268
-0.18900251 -0.02659794 -0.049031384 -0.20044068 -0.3492599 -0.12018333 -0.5701244 -0.21988712

mlp_13_1/MLP_0_1/hidden_1_1/Cast/ReadVariableOp:0 f4 [512, 256]
00000000: 7a8b 7e3e 774a 4e3e 6df9 773d ad82 bebc
00000010: f141 8cbc f7d4 e2bd 564e 0cbc 9bbf 19be
00000020: 84da 903c 880f b83b a713 1bbd 5fb1 223e
00000030: bd3d dc3d 9130 60bb 0ff0 03bc 4387 803d
00000040: 9ea3 21be 7541 983e d252 f4bd cf3a 513c
00000050: 0850 adbc 111d 12bd fc0b 6a3c eddf 8ebd
00000060: 1b7f 82bd 45f0 76be 1880 e3bd dfad a73d
00000070: a3f6 803d 8913 04bd 8a32 a8bd dd38 273e
00000080: e602 afbd ef6b 2dbe 1a04 4f3c 64ed 4b3b
00000090: 76cb 443e 06d4 d6bd 2c57 ec3c 6ef2 f7bd
000000a0: 8bc2 b53d dc92 583d 88dc 85bd 6e33 59be
000000b0: 45a0 683c d212 aabd b65f 5bba d72e abbd
000000c0: 44fb 5d3c 1795 adbb 7ca0 663e 764e c73d
000000d0: ad4a 433d fe01 8fbe 52b9 65bd fc25 08bd
000000e0: 2ecf 7abe 2d96 a73d cc41 cdbd 7ba6 1abd
000000f0: 4821 453b 26de 11be 4027 76bc badb e1bb
00000100: fc0c b9bc 2d18 113d 8c85 f73d c162 78bd
00000110: c15f 13be 57e3 69bc 39fd 38bd 1c2d ca3d
00000120: 45a2 833c 400c 66bb f342 b5bc d83e 683d
00000130: 9329 173e 49bf 84bd 2954 ae3d 16c4 89be
00000140: 8de3 abbd ae77 94bc b268 c4bd b01a 1a3d
00000150: c541 91bd c016 09bd fa0b 0f3e 9479 953d
00000160: 2327 aabc 0322 053d a7a6 06be d4ca 8d3c
00000170: f072 883d 557c 5abc 0f07 f93c 461a 0aba
00000180: 8c07 0ebe f18f cfbd 2750 853c f504 18be
00000190: 4863 6dbe 1209 a2bc afb8 b53d c598 71bc
000001a0: f8fa ffbd 2174 e4bd 1f58 d63d 922c fc3c
000001b0: 2192 4cbc 70c9 2ebe 0704 17be 2d34 abbd
000001c0: f059 e5bc abc4 59be 5cd3 1a3c 5238 543d
000001d0: 2cf2 9a3c 4cc7 6dbc 15e2 c43d dc1a 8ebc
000001e0: 0d61 043c 21d6 b5bd 7165 d6bc c13b 63bd
000001f0: 93bd f4bc 533a 0bbe 9af5 ecbd 8b2a da3d
00000200: 9203 073e 2f90 5abc c32d c4be cad1 923c
00000210: 5f84 c03b 0fbe 02bc 69b4 5b3e ff94 5ebe
00000220: 68f2 88bc 4ee8 403e 0e23 d1bd 6f71 423d
00000230: b741 f43d 4f57 703d 2a68 90be e2ad f63a
00000240: 45b5 17be 2fb8 6e3a 16ee 443d 00aa 9fbd
00000250: 73eb adbd 5ed3 99be 8fd2 b0bd d852 283d
00000260: 3a77 013c 75bb 8cbd da10 2f3e 70e7 9a3c
00000270: deeb 6b3d e4d7 1bbd c731 8fbc 0637 d3bd
00000280: a3bc 043e 86f0 273d f15d 633e 4786 143d
00000290: 3c98 4abe 1cef 1e3e 7bdb d7be b42c 23bd
000002a0: a570 6c3d 6a64 dd3d 8d5b 963d a7c8 28be
000002b0: bde7 87bb 22b6 5ebc 1e77 22bd 4dcd e4bc
000002c0: a275 7c3d 4c42 1a3d ab92 4fbe 5522 de3b
000002d0: 2e5f 73be ff8d e23d a83b 373e 63ff 95bd
000002e0: b2ea 063d fb9f 96bc e0ca cfbd ca5b e73d
000002f0: 6398 8dbe dd86 36bd 5612 c93d 315d e0bc
00000300: a8cd 83bd c350 9cbe 4bcd d43d abbd 48be
00000310: e2f3 eebd a373 2e3c 8f9b 18bd b873 18be
00000320: 1124 113e 41e1 4abd 9b74 0dbe acda 4d3d
00000330: 92ac b8bc 9e53 22bd cf09 183e 7e65 063e
00000340: bb9b c13d e78a 043e d661 943d 0169 083d
00000350: 1c97 f93a d15b 65bd 8a26 9abb 9944 d5bd
00000360: d4a5 573a 80f5 1abd 9eec a6bc 4b40 c5bd
00000370: ab3f df3d 6c70 47bd eadc 61be 4537 e63c
00000380: 755a 6bbe c62f c33d 9afb 803d 3b56 91bb
00000390: c945 6fbd b786 35be 4b4d 59bd 1421 98bd
000003a0: d94f 523d 6b56 f2bc 1f22 93bd f629 40be
000003b0: c77d 673d 66c9 57bc 2480 a63c 5730 6ebe
000003c0: e7dc a43d 5b6e 213d 77c9 153e 8134 11be
000003d0: dcde cbbd 5c7b 38be 89ea b7bd 88db 36bc
000003e0: 91f8 9cbd 0bd6 34be b6a3 1a3d 0388 9dbe
000003f0: 84e1 18be 459c e0bd ba35 9b3d d8fd 3ebc
0.24857894 0.20145594 0.060540605 -0.02325567 -0.017121287 -0.11075776 -0.008563599 -0.15014498
0.017682321 0.005617086 -0.03786054 0.15887974 0.10753963 -0.0034208635 -0.00805284 0.06275799
-0.15785071 0.2973744 -0.11929859 0.012770369 -0.021156326 -0.03567225 0.014285084 -0.06976304
-0.063719 -0.24115093 -0.11108416 0.0818746 0.06297042 -0.032245193 -0.082127646 0.16330285
-0.08545475 -0.16935705 0.012635255 0.0031116838 0.19218239 -0.10489659 0.02885016 -0.12106787
0.08874997 0.05287443 -0.065362036 -0.21211025 0.0141983675 -0.08304371 -0.0008368449 -0.08358543
0.013548676 -0.005297314 0.22522157 0.09731762 0.04767864 -0.27931207 -0.05608494 -0.03323935
-0.24493095 0.08182941 -0.100223154 -0.037756424 0.0030079652 -0.14244899 -0.015024006 -0.0068926485
-0.0225892 0.035423446 0.12086019 -0.060641054 -0.14391996 -0.014275393 -0.045163367 0.09871885
0.016068587 -0.0035102516 -0.02212665 0.056700557 0.14761953 -0.06481797 0.08512146 -0.26907414
-0.08393011 -0.018123474 -0.095902815 0.037623107 -0.07092623 -0.03346896 0.13969412 0.0729858
-0.020770615 0.03250314 -0.1314951 0.01730863 0.066625476 -0.013335307 0.030398874 -0.0005268197
-0.13870066 -0.101348765 0.016273571 -0.14845641 -0.23182404 -0.019779716 0.08873116 -0.014745896
-0.1249904 -0.11154962 0.104660265 0.030782972 -0.012486012 -0.1706903 -0.1474763 -0.08359561
-0.027996987 -0.21266429 0.009449806 0.051811524 0.018914305 -0.014512848 0.09613434 -0.017346792
0.008079779 -0.088787325 -0.026171418 -0.055476908 -0.029875552 -0.13596468 -0.11570282 0.10652646
0.13184956 -0.01334004 -0.38316163 0.0179223 0.005875155 -0.007979884 0.2145554 -0.21736525
-0.01671715 0.18838617 -0.10211764 0.04747146 0.119265966 0.058677014 -0.2820447 0.0018820132
-0.14815243 0.0009106425 0.04807862 -0.07796097 -0.08492174 -0.30044073 -0.08633911 0.04109463
0.007901961 -0.06871692 0.17096272 0.018909186 0.057597987 -0.038047686 -0.01747979 -0.10313229
0.12962584 0.041000865 0.22203805 0.03626087 -0.19784635 0.155209 -0.42159638 -0.039837554
0.057724614 0.10810168 0.07341681 -0.16482793 -0.0041474984 -0.0135932285 -0.03966438 -0.027929926
0.06163562 0.037660882 -0.20270793 0.006778995 -0.23766777 0.1106224 0.17893851 -0.07324102
0.032938667 -0.018386832 -0.10146117 0.11296804 -0.27655324 -0.04456221 0.098179504 -0.027388187
-0.0643571 -0.30530366 0.10390719 -0.19603603 -0.11667611 0.010647687 -0.037257727 -0.14887893
0.14173914 -0.049531225 -0.13814013 0.05025737 -0.022543225 -0.039630525 0.14847492 0.13124654
0.09453531 0.12943612 0.07245223 0.033303265 0.0019042226 -0.055995766 -0.0047043012 -0.104134746
0.00082263094 -0.037831783 -0.0203765 -0.096314035 0.109008156 -0.0486912 -0.22056928 0.028102526
-0.22983725 0.095305964 0.06297989 -0.0044353283 -0.05841616 -0.17727171 -0.053052228 -0.07428184
0.05134568 -0.029582223 -0.071842425 -0.18766007 0.056516435 -0.013170576 0.020324774 -0.23260628
0.08049946 0.039411884 0.14627634 -0.14180185 -0.099546164 -0.18015808 -0.08980281 -0.011160739
-0.07664598 -0.17659776 0.037753783 -0.3076783 -0.14929777 -0.10967306 0.07578607 -0.011657201

mlp_13_1/MLP_0_1/hidden_1_1/BiasAdd/ReadVariableOp:0 f4 [256]
00000000: 7145 9bbe 8655 f3bd 0fcb d6bd 27b3 ebbc
00000010: e64f a8bc 49e7 55be 5236 2dbe 2ea1 93be
00000020: ea09 6abe a9d4 2cbe cf4b 1fbe 32de 78be
00000030: 7a9b 6bbe cb12 9abe 9df3 3ebe 3235 99be
00000040: e7e0 28be b0be 70be a43e 25be c1e3 46bd
00000050: 5a10 a0be 463c 12be 43c5 76be ba94 4abe
00000060: b465 74bd 7a4f 95be adb1 33be fecf 08be
00000070: 56fa 45be fd25 dabd 35f4 4abe e74a 64be
00000080: bc5b 6dbe 3fef bcbd e1de 89be 9064 34be
00000090: 6d08 22be 24d6 56be 3bef 89be 2d6c 3fbe
000000a0: e1a9 8bbe 8ec7 b5be 8cb6 1fbe 1625 5ebe
000000b0: 9d55 19be 6c23 adbd 67d1 88be f03d 88be
000000c0: 5e5f 9ebe c83c 03be 4fd1 57be 70da 82be
000000d0: 4de6 75be af2c 49be 5c9b 79be 3def 17be
000000e0: e419 85be 6cec 07be 13ba cfbd 51bd 96bd
000000f0: 08c9 1dbe af98 2fbe 593a 5abe 4d80 aabe
00000100: c5c9 51be e511 db3c e931 01bd 05ea 0fbe
00000110: 7ad3 64be 76ec 7ebd 8eb0 8bbe bf19 9abe
00000120: 38ed 94be 424a 32be ed17 6dbe a75a 0cbe
00000130: 6353 b7bd 0e40 cfbd 0b26 92be 2f2d 6abe
00000140: c252 19be 2b16 21be 0fa6 62be d1d6 53be
00000150: 086e fcbd 1a9d 47be 981d 14be 5a44 3dbe
00000160: cbee 65be 9df4 a1be f9ad 26be 97ce 39bd
00000170: 335b efbd 4e9a 67be e95c 4ebe ca7d ebbd
00000180: ba92 a2bd e0c6 91be 6c35 57be f6ee 78be
00000190: 2b33 8cbd 8f34 1abe fa74 16be 5a63 afbe
000001a0: f2e7 22be 267b 06be 09d3 8a3d 7b1f 62be
000001b0: 7769 26be 2dfe 5fbe 16e4 4dbe bfba 89be
000001c0: e651 b8bc 3232 5fbe e46f 19be f257 20be
000001d0: eb86 3ebe 3e3a 0ebe b4ba 25be 09c5 34be
000001e0: 510f bfbd aaad dabd 86e1 89be 94a0 7dbd
000001f0: 41c3 5ebe 22bd 90be 7b83 eabd 19c0 9fbe
00000200: 2d04 90be 9008 06be 0530 e2bd 144d 65be
00000210: da91 3ebe e12d 78be a4dc 9cbe 8468 7dbe
00000220: 161e 64be d76e 82be d97d 73bd 1fa2 4ebe
00000230: 390b 87be 4a8c b8bd 4524 77be 994d 25be
00000240: 5b37 ecbd e37b 46be 036a 2abd 3745 a3be
00000250: d283 76be cd0a 43bd e3be a0be a233 91be
00000260: ba92 66be 6976 03be 4596 0ebe 3aea 923b
00000270: c989 a1be 29c5 c6be 2e2a a2be 99af 96be
00000280: 91c5 82be b916 cbbd bcd5 7dbe b06c 6bbe
00000290: 152d f3bd 0f71 24be 3b1e 99be 9688 57be
000002a0: 4fd7 90be c5cb 6abe 3009 f4bd 1cbf fbbb
000002b0: bafc 50bd c707 36be 6605 f3bd 89bb 41be
000002c0: 31d6 8fbe 4724 f6bd adab 73be a12c 57be
000002d0: 3a1a 3abe 66eb 50ba 3dad 42be 4c88 7abe
000002e0: eb7e aebe 7602 88be b76f 20be 9bfa 6cbe
000002f0: 3188 ffbd c882 44be d716 6e3d 732b 55be
00000300: f59d 5fbe 18d8 71be 6009 75be de9e 38be
00000310: bc4e 5abe b061 55be 8710 343d 3079 6abe
00000320: dbb9 8abe 9aae 23be 490d 6fbe 22a5 50be
00000330: db25 68be 9824 88be 5c40 5dbe 37dc 0dbe
00000340: a56b 40be 5329 6fbe fe11 ffbd 6c2e 47be
00000350: d785 debd a61c 3fbe 6f40 84be 9082 91be
00000360: 0a4e 04be 77ff 66bd 5439 eb3d d9f5 18be
00000370: b589 75be 9be6 7cbe 1557 8fbe c0fd 97be
00000380: 13d2 92be d6f3 40be dc4e 55be 3140 87be
00000390: 6fa9 41be 6a12 8abe 6dba 3abe c596 76be
000003a0: 0267 29be 46f2 89be ef93 70bd 4cfd 74be
000003b0: 7de5 56be 7591 32be 8a4f 12be b5eb 50be
000003c0: 262a 86be 8c5c 9dbe 201f 51be 9adf b9bc
000003d0: 19b8 27bd 9d68 99be 2d9c 6abe 24d9 07be
000003e0: 9957 85be 6a1a 69be d5c6 4fbe 342e 91bd
000003f0: 3da1 7bbe 8ce2 05be cd2c ddbd 8054 57be
-0.30326417 -0.11881547 -0.10487949 -0.02877195 -0.020545911 -0.2088901 -0.16915253 -0.28833908
-0.22855344 -0.16877998 -0.15556262 -0.24303511 -0.23008528 -0.30092463 -0.18647619 -0.29923397
-0.16492043 -0.23510242 -0.16137177 -0.048557047 -0.31262475 -0.14280805 -0.24098687 -0.19783297
-0.059667304 -0.29162198 -0.17548247 -0.13360593 -0.19333777 -0.10651777 -0.1981972 -0.22294198
-0.23179525 -0.0922532 -0.26927856 -0.17616487 -0.15823527 -0.20980126 -0.2694033 -0.1869361
-0.27278045 -0.3550381 -0.1559698 -0.21693835 -0.14974065 -0.08454022 -0.2672226 -0.26609755
-0.30932134 -0.12816155 -0.21075939 -0.2555728 -0.24013634 -0.19645952 -0.24375671 -0.14837356
-0.25996315 -0.13273782 -0.10142913 -0.07360328 -0.15408719 -0.17148088 -0.2131132 -0.3330101
-0.20487125 0.026741931 -0.03154174 -0.14054115 -0.22346297 -0.062237225 -0.27283138 -0.30097768
-0.29087234 -0.1741114 -0.23153658 -0.13706456 -0.08951452 -0.10119639 -0.2854465 -0.22868799
-0.14972976 -0.15731113 -0.22133659 -0.20687415 -0.12325674 -0.19493523 -0.14464414 -0.18483105
-0.22454374 -0.31631938 -0.16277303 -0.045363035 -0.11687317 -0.22617456 -0.2015263 -0.11498602
-0.07938142 -0.28472042 -0.21016473 -0.24309906 -0.06845697 -0.15059112 -0.1469306 -0.34255487
-0.15908793 -0.13132915 0.06778533 -0.22082321 -0.16251169 -0.21874304 -0.20106539 -0.26900288
-0.02249999 -0.21796492 -0.14984089 -0.15658548 -0.18606155 -0.13889405 -0.16184503 -0.17653288
-0.09329093 -0.10677655 -0.26929873 -0.061920717 -0.21754171 -0.28269297 -0.11450859 -0.31201246
-0.28128186 -0.13089204 -0.11044315 -0.22392684 -0.18610325 -0.24236251 -0.30637085 -0.24746901
-0.22277102 -0.2547519 -0.05944619 -0.20179032 -0.2637575 -0.09011133 -0.2413493 -0.16142882
-0.11533996 -0.19383197 -0.041605007 -0.31888744 -0.24073723 -0.047617722 -0.31395635 -0.28359705
-0.22516909 -0.12838139 -0.13924511 0.0044834884 -0.31550434 -0.38822296 -0.31672806 -0.29430845
-0.25541356 -0.099164434 -0.24788564 -0.2299068 -0.11873833 -0.16058753 -0.29905877 -0.21048197
-0.28289267 -0.22929294 -0.11915815 -0.007682694 -0.05102227 -0.17776404 -0.11866264 -0.18919195
-0.28093103 -0.12018638 -0.23795958 -0.21013118 -0.18174067 -0.00079696474 -0.19011398 -0.24466056
-0.34081206 -0.26564378 -0.15667616 -0.23142473 -0.12477148 -0.19190514 0.05812725 -0.20817356
-0.218376 -0.2361759 -0.23929358 -0.18029353 -0.21319097 -0.20838046 0.043961074 -0.22897792
-0.2709492 -0.15984574 -0.23344912 -0.20375493 -0.2267069 -0.2659042 -0.21606582 -0.13853537
-0.18791063 -0.23355608 -0.124546036 -0.19451302 -0.10865372 -0.18663272 -0.2583041 -0.28419924
-0.12920395 -0.056395974 0.11485544 -0.14937533 -0.23978312 -0.24697344 -0.27996126 -0.29685783
-0.286759 -0.18843016 -0.20830864 -0.26416162 -0.1891229 -0.26967174 -0.18235178 -0.24080952
-0.165432 -0.26942652 -0.05873483 -0.2392475 -0.2098598 -0.174383 -0.14288154 -0.20402415
-0.26204032 -0.3073467 -0.2042203 -0.02268963 -0.040947054 -0.29962626 -0.22911139 -0.13266426
-0.26043394 -0.22763982 -0.20290692 -0.07088891 -0.24573226 -0.13074702 -0.10799561 -0.21028328

mlp_13_1/MLP_0_1/hidden_0_1/Cast/ReadVariableOp:0 f4 [101, 512]
00000000: 2d12 05bf def5 17be 1ab6 5fbd 4610 7ebe
00000010: e28a a0be 4984 823e 7d72 0d3d 35bc d4bd
00000020: dae8 6e3c 76df 813e f088 9cbe e104 3d3e
00000030: b679 17be 519e 58be 9a84 88bd 2b54 86be
00000040: aa25 af3e b429 1c3e 6a3f c13e d77d bdbd
00000050: 9717 313e 3f5e 0fbe 72bf abbd 0c53 03be
00000060: 58ed 3c3e 9fce a13d cf81 573c 9ee3 58be
00000070: 9fa1 6ebd a7cb eb3d 6cee 2cbd 8e26 953e
00000080: 41d0 783e 2d93 19be a553 10be 55ed 813e
00000090: 7fe7 163d 48f8 c63c acff 7abd 34cf 6d3e
000000a0: c063 593e 4618 c33e 26e9 e0be 0d5e 343e
000000b0: 2335 ebbd 13d1 c9bd d430 41be 3de3 e63d
000000c0: abf6 813e bec0 e2bc 7082 4d3d 75b0 58be
000000d0: d751 c6bd 5463 9cbd e51f c33d c9e2 cfbe
000000e0: 7abd 7bbe 48ef 1fbc c584 63bd 3d17 0dbd
000000f0: cb08 953e 16a1 3ebe 0c6f e13d 6517 1ebe
00000100: 25a5 713d 8ac9 cb3c 32c8 493e 85c0 56be
00000110: c020 e93e 6234 58bc f2ca 863e 58b2 68be
00000120: 80c5 00be 91af 60bd 01bc 573e b47d 0e3e
00000130: 17f1 c93e 9c2a 93be 95f0 05bd 4365 cb3e
00000140: 02cb a93e 4f35 e7bd 734b c1bd 486a 06bd
00000150: 4c6a c4bd f560 633e b63c 353e 18e2 abbe
00000160: e967 d8bd 5e91 883e bb96 b13d 8d81 983c
00000170: 29bd 72be 7176 34be 0836 60be 4002 53be
00000180: 0a4d 26be 23a3 4b3e a7b3 93bb ed5a b23e
00000190: 876a a23e 701c 923d f9f1 eebc f5d9 9cbe
000001a0: 0629 5fba b586 36be b9e7 01be 7e75 513e
000001b0: f25d eabd 2a1d 953e bc1e 20be 1d73 183e
000001c0: 393c 15bd 1615 9b3b 1516 74be f875 ebbc
000001d0: 4431 45be eea5 80bd 6a39 733e 6f35 07be
000001e0: 3695 783e 2ff6 49be 4630 9f3c 9c62 1f3f
000001f0: fedd 87bd d591 7a3e a768 dfbe 00d2 18bd
00000200: 4621 8b3e 78e5 803e 8cfb 243f 5750 d3bd
00000210: 5af9 e83c 805f 3b3e b971 98bd 9ba4 e63d
00000220: 52aa 433e 47d8 103f 67c3 2dbe 481c 4bbc
00000230: 0640 2e3e d70e a63d 76fd 30bd 2d6a cb3c
00000240: 5e8a 3d3c 9468 0bbe 97cd d6bd bfca 903e
00000250: 33b1 183c 3bb9 3bbc f5c0 dfbe b439 f53d
00000260: 3f38 eabe 1803 7abd c849 b5bd 240e 49be
00000270: dffd 363e 9146 973e c59a 103e da56 093d
00000280: 871d 6e3d a094 b23d 5b15 5c3e 4764 72bd
00000290: c104 b23d 3a5b 3e3e dbc1 0d3e a09c b6bd
000002a0: e13c 9cbc d4f0 31bd 238a 0a3f dcdb d3bb
000002b0: dd92 c3be 7601 fcbd 80fe 203e d959 e7bc
000002c0: 51ff e63c 5d3f 153d 86d7 453e e1b5 a73d
000002d0: 59b5 813e 51e3 a9be f7c0 b1be a2a6 5dbe
000002e0: 6f71 84be adb6 973c 3205 353e 31e7 533e
000002f0: 9734 9b3e fb66 d33d bd6f 4fbd 37cc 3bbc
00000300: 4c1d 223e b0ce 60be 75bb 613e fcd3 94be
00000310: f0d5 c6be 773d 673e 6fdd bb3e 2451 b9bd
00000320: 5752 c7bd 8f3a 56bd 1918 22be 9b80 ba3c
00000330: 83db 34bd 67f8 1b3d 3dea b4be 38f0 383d
00000340: 268e 6ebe bb22 29bd 2eaa 43bc 8077 c3bd
00000350: d28f 24be c474 eabd 86fb 10bf c11f 38be
00000360: 2d29 d63d 193a 30be 5550 a63d b3b1 6c3e
00000370: 9580 f73e d9ed 573e 9140 833e 2493 cc3d
00000380: 1d6f 653e e34d 833d 30ad 32be 8fa1 573c
00000390: 393d 633e 528e 80be b371 f1bd 7447 40be
000003a0: f1eb a73e 8f4d 103e 95c1 983d 17ea 87be
000003b0: 5513 0a3e f8ab c23d 8f88 353e c919 4c3e
000003c0: 5817 87bd 7dbc 92be cc2c 27be e3ec 04be
000003d0: e561 fc3d 93fa 8d3e 40e0 5b3e 95e7 87bc
000003e0: 9f30 c1be bc3f 3dbe 02e5 44bd edd2 ae3e
000003f0: 8ae5 703e 79ba c43d ddbd 24be 2ff8 1cbe
-0.5198086 -0.14839885 -0.054617025 -0.24810895 -0.3135596 0.2549155 0.034533013 -0.1038746
0.014581883 0.253658 -0.30573225 0.18458892 -0.14792523 -0.21154143 -0.06665917 -0.2623609
0.34208423 0.15250283 0.37743694 -0.09252518 0.17294155 -0.14000796 -0.08386125 -0.12824649
0.18449914 0.07900738 0.013153507 -0.21180579 -0.058259603 0.11513453 -0.042219564 0.29130977
0.24298193 -0.1499755 -0.14094408 0.25376382 0.036841866 0.024288312 -0.061278984 0.23223573
0.21229458 0.38104457 -0.43927878 0.17614003 -0.114847444 -0.09854331 -0.18866283 0.11273811
0.25383505 -0.027679797 0.050173223 -0.21161063 -0.096835785 -0.07636133 0.09527568 -0.4060271
-0.24583998 -0.009761639 -0.05554654 -0.03444599 0.2910827 -0.18616137 0.11007509 -0.15438612
0.058995385 0.024876375 0.19705275 -0.20971878 0.455328 -0.013196083 0.2632671 -0.22724283
-0.1257534 -0.054854933 0.21067812 0.1391514 0.3944175 -0.28743446 -0.03270014 0.39725694
0.33162695 -0.11289465 -0.09438219 -0.0328162 -0.09590587 0.22204955 0.1769894 -0.33570933
-0.10566694 0.26673406 0.08671328 0.018616462 -0.23704971 -0.17623307 -0.21895611 -0.20606327
-0.16240326 0.1988645 -0.0045075 0.34834996 0.317219 0.0713433 -0.029168116 -0.30635038
-0.0008512888 -0.17824824 -0.12686051 0.20454976 -0.114437 0.29123813 -0.15636724 0.14887662
-0.036434386 0.0047327382 -0.23836549 -0.028742775 -0.19257075 -0.062816486 0.2375237 -0.13203977
0.2427567 -0.19722818 0.019432198 0.6225984 -0.066341385 0.24469693 -0.4363453 -0.037309647
0.27173823 0.2517507 0.6444633 -0.10318058 0.028439213 0.18298149 -0.07443566 0.11261865
0.19107941 0.56580013 -0.16969071 -0.0123968795 0.1701661 0.08108299 -0.04321047 0.024830902
0.011568634 -0.13614112 -0.10488432 0.28279683 0.009319591 -0.011457737 -0.43701902 0.119738966
-0.45746037 -0.061038107 -0.08851963 -0.196343 0.17870282 0.29546025 0.1412154 0.033530094
0.05813363 0.08719754 0.21492521 -0.059177663 0.08692313 0.18589488 0.13843481 -0.089165926
-0.019071998 -0.043442562 0.5411703 -0.0064654183 -0.38197985 -0.12304966 0.15722084 -0.028241085
0.028197916 0.03643738 0.19320497 0.081889875 0.2533367 -0.3318124 -0.34717533 -0.21645597
-0.25867793 0.018519724 0.17677763 0.20693661 0.3031356 0.10322376 -0.05064367 -0.011462263
0.15831488 -0.21953845 0.22044165 -0.2906798 -0.38835096 0.2258204 0.36692378 -0.090486795
-0.09732502 -0.05230194 -0.15829505 0.022766402 -0.044154655 0.03807869 -0.3533496 0.045150965
-0.23296413 -0.041292887 -0.0119424295 -0.09544277 -0.16070488 -0.114480525 -0.56633794 -0.17980863
0.104570724 -0.17209662 0.08120791 0.23114662 0.48340288 0.21086825 0.25635198 0.09989002
0.22405668 0.0641134 -0.17448878 0.013161077 0.22191323 -0.25108582 -0.117892645 -0.18777257
0.32797197 0.14092086 0.07458798 -0.26545784 0.13483937 0.09505457 0.17727874 0.19931711
-0.06596249 -0.2865943 -0.16325682 -0.1298099 0.123233594 0.27730235 0.21472263 -0.01658992
-0.37732407 -0.18481344 -0.04806996 0.341453 0.23525062 0.09605879 -0.16088052 -0.1532905

mlp_13_1/MLP_0_1/hidden_0_1/BiasAdd/ReadVariableOp:0 f4 [512]
00000000: d1ed cbbe 91ce e1be 273a 1abf e6ce b4be
00000010: 979e fabe b246 d2be c4b0 dabe abff 23bf
00000020: 6bd4 a3be 7628 8fbe b68d 14bf 91f9 6bbe
00000030: 3b8c 09be 1ab7 28be 3767 78bf 2afe b7be
00000040: 70e1 6bbd 88ce 30bf 8065 f8be b577 e3be
00000050: d267 f7bb 6817 3e3e 0ec0 98be ad31 87be
00000060: f28d 59be bde7 91be 2bd5 e6be cb33 cebe
00000070: 76b1 ecbe 0704 40bf 635d 02bf 3cff 19be
00000080: 23f6 49bf 0158 a8be ee62 043c 50a3 8abe
00000090: 44a3 12bf 37dd b3be c812 32bf 6c21 4ebe
000000a0: b992 64be 95ad b4be 6942 d3be 0ba1 c8be
000000b0: 35f4 5ebe 2227 6fbe 25ea 1ebf 7a2f 49be
000000c0: f62c eabe 2b46 cbbe 975a 113d f870 11bf
000000d0: 36d9 d8be 558e afbe 5994 c2be 85e7 33be
000000e0: 9efc e0bd 54fd a5be d6a1 b5be b548 c3be
000000f0: 2596 bebe cce3 85be 9549 3fbf 27b2 bfbe
00000100: 0c86 d73d fe50 20bf e461 0dbf 6b80 91be
00000110: 71a0 cbbe d07e f4be 9258 b8be 4c24 f6be
00000120: 6b79 70be 3ad5 0cbf 5e35 09bf 5748 0bbf
00000130: fc5b 09bf 05f5 23be db48 0dbf 1bba b8be
00000140: 14ac 4ebe 6f54 efbe 7a92 e0be a2f0 8abe
00000150: 7896 f3be 67ca 63be a89d 50be 6c0b 25bf
00000160: 0ed5 a7be db53 bfbe 4526 aebe ae4a 52bd
00000170: 53fe 8dbe 0874 ccbe 82da 04bf 248c fc3c
00000180: d7ba 13bf 8162 ffbe a7a7 dbbe 390c 8dbe
00000190: 58be dbbd 6b20 dbbe 5b48 28be 40e0 3abe
000001a0: 4a85 5ebe 1638 e2be 459a 72be b80e 5dbe
000001b0: f2d5 babe f33c e0be e100 b0be 7235 13bf
000001c0: 73a8 97be 43aa 2ebf 2eca 28bf cca1 63be
000001d0: 9747 23bf 2d62 e4be 5362 35be e767 04bf
000001e0: 80e9 6fbe 291d ccbe e689 e2be 6b2d e1be
000001f0: 3920 81be d38d a7be 24cc bbbd fbf2 99be
00000200: 4fdc eebe b4c0 7dbe c6b2 20bf 2ca8 b1be
00000210: 46e4 b5be 736e 03bf 1b8c fabe 8f4d 20bd
00000220: b101 c6be 14b6 afbe 525b 82be 0f71 d8be
00000230: 2a4a 92be 7ea3 4fbf 784c d3be afd2 28be
00000240: ae16 7bbe 61bc bebe f2b7 31bf 30c5 1fbe
00000250: 07bf 29bf 140c 19bf cbaa 7a3c 14cd 64be
00000260: 547c 7fbe 80f9 9bbe 0d54 e5be 1a9e 37bf
00000270: 6d03 c5bd e661 a1be 0eff 14bf 95cb 81be
00000280: d767 b9be 03d9 dabd c1f3 d5be 73f7 24bf
00000290: 5572 22be 26d4 31bf 7518 3abf af08 a7be
000002a0: 9c8e 73be 314e 73be d1ae fbbd 68ee 8ebe
000002b0: 1371 b5be baac d8be b891 75be 5d10 24be
000002c0: 9525 0cbf 60de 9f3d c96c 5cbe 80be 04bf
000002d0: 913b 7dbb 39cb d0be 73e9 eabd 81e1 ecbe
000002e0: 4053 30bf 6398 a4bd 33cf b2bd c87f b8be
000002f0: 6a41 cebd d288 fdbe c1a5 30bf 0ecb a7bd
00000300: 30ff 07bf 5978 6ebe 2a7a a1be 940b 1bbf
00000310: a325 b5be bac3 c3be 4933 e0be 95d7 67be
00000320: a04e 28bf 70f1 09bf d303 9bbe 6e50 2b3d
00000330: ab62 23be 2b24 e6be 14fb 64be dc2d 9dbc
00000340: 60be c2be a9cd 22be c114 61be ca4f 19bf
00000350: f162 87be 84bb bcbe 0f84 7abc e957 febe
00000360: e7d8 d0be 4400 0bbf dd5a 6abd b9a3 e5be
00000370: bb56 55be d1a1 04bf 9d23 313d 3447 f9be
00000380: 6ede 26be f701 d4be 1cb8 853d ae50 24bf
00000390: 61b0 9fbe cfe4 a8be af77 bbbe 0cb7 3abe
000003a0: 1ad6 05bf 3f5f 00bf bf41 04bf e28c b8bd
000003b0: 8bef dabd 85c4 893d 8a48 eebe 927a cabe
000003c0: 117e c3be a79b d8bd da5c 7ebc f1e0 bebe
000003d0: f013 62be 078b 17bf 51cd b7bc 1f63 a2be
000003e0: 6a7d 9cbe fa9a dfbe 515b 19bf 820d fbbd
000003f0: 42c6 00bf c605 bfbe 1bf0 bdbe 0641 0fbf
-0.39829877 -0.4410291 -0.60244983 -0.353141 -0.4894912 -0.4106956 -0.42712986 -0.64061993
-0.31998 -0.27960557 -0.58028734 -0.23044421 -0.134324 -0.16476098 -0.97032493 -0.359361
-0.05758804 -0.6906514 -0.48514938 -0.44427267 -0.007550218 0.18563616 -0.29834026 -0.26405087
-0.21245554 -0.28497115 -0.4508451 -0.4027389 -0.46229142 -0.75006145 -0.50923747 -0.1503877
-0.788912 -0.32879642 0.008080227 -0.27077723 -0.57280374 -0.3512971 -0.6955991 -0.20129937
-0.22321595 -0.35288683 -0.41261604 -0.39185366 -0.21772845 -0.23354772 -0.62076026 -0.19647017
-0.45737427 -0.3970197 0.035486784 -0.56813 -0.4235322 -0.34288278 -0.38003805 -0.17568786
-0.10985683 -0.32419837 -0.35475034 -0.3814141 -0.37223926 -0.26150358 -0.7472165 -0.37440607
0.10523614 -0.62623584 -0.55227494 -0.28418288 -0.39770845 -0.47753 -0.36005074 -0.48074567
-0.23483817 -0.5501286 -0.53597057 -0.54407257 -0.5365598 -0.16011436 -0.55189294 -0.36079487
-0.2018283 -0.46744105 -0.43861753 -0.27136713 -0.47575736 -0.22245179 -0.20372641 -0.64470553
-0.32779735 -0.37368664 -0.34013572 -0.05134075 -0.27733096 -0.39932275 -0.51895916 0.030828543
-0.5770697 -0.4987984 -0.42901346 -0.27548388 -0.107296646 -0.4279817 -0.16433851 -0.18249607
-0.21730533 -0.44183415 -0.23691662 -0.21587646 -0.36491352 -0.437965 -0.3437567 -0.57503426
-0.29620704 -0.6822855 -0.659335 -0.2222969 -0.6378111 -0.44606152 -0.17713289 -0.5172104
-0.23428917 -0.39865997 -0.44245833 -0.43979964 -0.25219896 -0.3272539 -0.09169796 -0.30068192
-0.46652457 -0.24780542 -0.62772787 -0.34698617 -0.3552572 -0.5134041 -0.48935017 -0.039136466
-0.38673165 -0.34318602 -0.25460297 -0.42273757 -0.28572208 -0.81108844 -0.4126928 -0.1648662
-0.2452037 -0.37253097 -0.69421303 -0.15602565 -0.6630711 -0.59784055 0.015299509 -0.22343856
-0.24949771 -0.3046379 -0.44790688 -0.7172562 -0.09619794 -0.31520003 -0.5820168 -0.25350633
-0.36212036 -0.10685923 -0.41787532 -0.6444008 -0.15863927 -0.6946434 -0.7269357 -0.32623813
-0.2378487 -0.23760296 -0.12289203 -0.27916265 -0.3543783 -0.4231928 -0.23981369 -0.16021867
-0.54744846 0.078060865 -0.21525873 -0.5185318 -0.003864024 -0.40780047 -0.11470308 -0.46265796
-0.6887703 -0.08036878 -0.08730926 -0.3603499 -0.100710705 -0.49518448 -0.6900292 -0.081930265
-0.5312376 -0.23288096 -0.31538516 -0.6056454 -0.35380277 -0.38235265 -0.43789127 -0.22640832
-0.6574497 -0.5388403 -0.30276355 0.04182475 -0.15955608 -0.4494947 -0.22361404 -0.019186907
-0.3803587 -0.15898766 -0.21980573 -0.59887373 -0.26442674 -0.36861813 -0.015290274 -0.49676445
-0.40790483 -0.5429728 -0.05721556 -0.44851473 -0.20833866 -0.5180941 0.043246854 -0.48687136
-0.16295788 -0.4140775 0.06529257 -0.6418561 -0.31189254 -0.32987067 -0.3661475 -0.1823389
-0.5227982 -0.50145334 -0.5166282 -0.09011246 -0.106902204 0.06726936 -0.46539718 -0.3954664
-0.3818212 -0.10576563 -0.015525067 -0.37280992 -0.22077918 -0.59196514 -0.02243677 -0.31716248
-0.30564433 -0.43672925 -0.5990496 -0.12258436 -0.5030252 -0.37309092 -0.37097248 -0.5595859

ConstantFolding/mlp_13_1/truediv_recip:0 f4 [101]
00000000: 4286 a83f e2a2 933f 0f64 b23f 3bb0 fd3e
00000010: 63d8 ad3e c0dc 973e bee4 3f41 3ac2 1041
00000020: 8724 e73f 6f84 1b40 2b1d 1540 761a 9b3f
00000030: 3668 6840 6b2a 8241 5979 5841 6418 3d41
00000040: 5062 1841 791d 3d41 f37e 4f41 95c4 4e41
00000050: d49e 3b41 aa71 4541 4eba 4d41 6e72 6941
00000060: f94b 4a41 d5ae 1c41 c428 5e41 8872 3c41
00000070: d413 3541 0a50 2941 2162 0b41 9852 2d41
00000080: fc60 3d41 bd2a 3341 76d5 2e41 36fd 2c41
00000090: 888f 3d41 28ea 3741 6271 2c41 7c37 0b41
000000a0: 26e3 2f41 d03d 5d40 4fc4 3940 e995 3840
000000b0: 6fb2 1c40 6a61 5240 db2c 4140 fca6 3240
000000c0: cd53 2a40 6719 3240 4c04 5640 d7f4 4840
000000d0: a851 4340 1869 1540 9024 4f40 6739 5d40
000000e0: 6ec8 3940 8d78 3840 30b0 1c40 4147 5240
000000f0: 1704 4140 e79f 3240 4158 2a40 2a1c 3240
00000100: e403 5640 43fd 4840 f629 4340 5a73 1540
00000110: 6617 4f40 0c37 5d40 14ce 3940 6a5e 3840
00000120: a2ae 1c40 f92f 5240 62de 4040 b49a 3240
00000130: 735d 2a40 8020 3240 6e04 5640 f205 4940
00000140: 5105 4340 e77e 1540 910e 4f40 f1b9 6f41
00000150: 7e63 4841 694c 4441 3e79 2841 ee7b 6341
00000160: 4a1e 4c41 8ecf 4141 ca15 3641 c0fa 4241
00000170: 642b 6441 9189 5941 17a4 4e41 c1b7 2041
00000180: 1850 5f41 d780 1f40 b0fa 2040 3c4f b53f
00000190: c04a b53f
1.3165972 1.1534083 1.3936785 0.49548516 0.33954152 0.29660606 11.993345 9.047419
1.8058022 2.429958 2.3299053 1.211745 3.6313605 16.270712 13.529626 11.818455
9.524002 11.819695 12.968493 12.922994 11.726276 12.34025 12.857985 14.590437
12.643548 9.792684 13.884953 11.777962 11.317341 10.582041 8.711457 10.8326645
11.836178 11.197934 10.9271145 10.811819 11.847542 11.494667 10.777681 8.701046
10.992956 3.4568977 2.9026067 2.8841498 2.4483907 3.2871957 3.0183628 2.791442
2.6613648 2.7828004 3.3440123 3.1399438 3.051859 2.3345394 3.2366066 3.4566286
2.9028583 2.8823578 2.4482536 3.285599 3.0158746 2.7910097 2.6616366 2.782969
3.3439875 3.1404579 3.049436 2.3351655 3.2358031 3.4564848 2.903203 2.8807626
2.4481587 3.284178 3.0135732 2.7906923 2.6619537 2.7832336 3.3440204 3.1409879
3.0471995 2.3358705 3.235264 14.982896 12.52429 12.268655 10.5296 14.217756
12.757395 12.113173 11.38032 12.186218 14.260593 13.596086 12.915061 10.044862
13.957054 2.4922388 2.5153008 1.4164805 1.4163437
